Ising-Model-Coarse-Graining-with-CNNs-main/models/best_cnn_model.pth (torch, 46825 bytes, 19 tensors)

conv1.weight f4 [16, 1, 3, 3]
00000000: 4163 a03e ccf7 c4bd bb43 26be e4b8 73be
00000010: de3c 963d b46c cc3d 8c39 51bd f294 47be
00000020: 87f7 67be a555 93bd d411 86bd 3310 323e
00000030: 90d3 2abd 7a3b 96be 5731 c3be e341 643c
00000040: 24c2 683e 8078 84be 8035 8cbe e5fb 9f3e
00000050: c068 883d f68f 94be 5ab3 9bbe cd87 c2bd
00000060: d0cd 3dbd 5340 073d 5f41 733b 8e9f d93d
00000070: a3fc c73e 71a0 bc3e 8fc0 84bd fc54 0abc
00000080: 7af6 3ebe 2182 b23d e7d5 303c 769c e93d
00000090: 49a8 a8bc 4fe9 4a3d 57b5 283d 0be5 613e
000000a0: 0793 adbe 27a9 53be fb6a 0ebe 009d 95be
000000b0: dcb0 863e a26f 8a3d 1fa8 c13d 6e0d 23be
000000c0: 566f ec3d 36ad 953e 273f 923e 34e5 e83d
000000d0: 58b9 693e ba3e 073e 4c37 5d3d 4ded 983e
000000e0: aaa5 3a3e 6774 ebbc f41a aa3e 227d 903e
000000f0: 64ec 553d 3b0e 70bb 70e1 c0bd 830a aa3c
00000100: db3e 803d 1e5f e7bc ca6f 40be 0394 8fbe
00000110: 94ba 8e3c 6840 903e 89dc 84be 04ba e93c
00000120: 582d 583c aabb 5f3d 99dc 19be e9dd 833e
00000130: bc62 82be bf1d acbc 97f2 8fbd dfd5 9f3e
00000140: 20f4 7f3e a088 65be e284 c0be ceba 043d
00000150: 7587 563e 170b cd3d cf9b d1bd 2a9a 373e
00000160: 9157 183e 1895 b03d 491b 0cbe 9042 c73e
00000170: 93b0 3a3d 9edd 693e 41e7 39be 5b09 873e
00000180: 6230 943d 01c0 2d3e 431e 8c3e 1170 a1be
00000190: ce1d 833e 498a 01bd c1d5 413c eeab b23e
000001a0: 1c8e 883e ebd9 5ebe 8b54 3fbe 2c3d 843e
000001b0: 9edb 62be 1749 67be d82b 1b3b 47da 59be
000001c0: 9f0c 933e 6785 a23b 860b 393b b85e c73b
000001d0: 8d44 41bc d64c 863e 8dd3 24be 8ebc 50be
000001e0: cbbc 823e 7dc3 f83d 09af 48be 36fd 5b3e
000001f0: 3fc9 b0be 6cd4 debd 2235 d73c 61fa 9f3c
00000200: 1cb5 833b 967f 233e c390 a1be 4e8a 8b3e
00000210: d6d0 5fbc 57fd 87bc dd19 d5bc 7605 073e
00000220: 4dcb aa3e bb91 98be d2b4 81be ac95 67be
00000230: 0a1a 813e 725d be3d b1aa 61be 1c76 773e
0.31325725 -0.09617576 -0.16236775 -0.23800999 0.07335828 0.09981671 -0.05108027 -0.19490412
-0.22653018 -0.0719407 -0.06546369 0.17388992 -0.041705668 -0.29342252 -0.3812358 0.013931724
0.22730309 -0.25873184 -0.27384567 0.31246868 0.066606045 -0.29016083 -0.30410272 -0.09498558
-0.046338856 0.03302033 0.0037117822 0.10626136 0.39059934 0.36841157 -0.0648204 -0.008443113
-0.18648711 0.08716226 0.010793186 0.11406796 -0.020588057 0.049538907 0.041188564 0.22060029
-0.33901235 -0.20669995 -0.13907997 -0.29221344 0.26306808 0.067595735 0.09455895 -0.15923092
0.11544673 0.29233712 0.28563806 0.11371842 0.2282461 0.13207522 0.054007813 0.29868546
0.18227258 -0.028742028 0.3322369 0.2822047 0.052227393 -0.0036629576 -0.09417999 0.020756966
0.06261989 -0.028243598 -0.18792644 -0.2804261 0.017422952 0.28174138 -0.25949505 0.028531082
0.013194405 0.05462233 -0.15025558 0.25755242 -0.25465953 -0.021010278 -0.07028692 0.31217858
0.2499547 -0.224154 -0.37601382 0.032404713 0.2095011 0.10011881 -0.10234796 0.17929903
0.14877154 0.086221874 -0.13682283 0.3891797 0.04557855 0.22838446 -0.18154623 0.26374325
0.07235791 0.16967775 0.27366838 -0.31530812 0.25608677 -0.03162602 0.011830748 0.34896797
0.2667092 -0.21762817 -0.18684594 0.2582792 -0.2215409 -0.22586475 0.0023677256 -0.21274672
0.28720567 0.0049597505 0.0028235628 0.0060842894 -0.011796129 0.26230496 -0.16096325 -0.20384428
0.25534663 0.121466614 -0.1959802 0.21483311 -0.3452854 -0.1088036 0.026270453 0.01952857
0.0040193927 0.15966639 -0.31555757 0.27253956 -0.01366063 -0.016600294 -0.02601331 0.13185677
0.3335823 -0.29798684 -0.25333267 -0.22615689 0.2521518 0.09295167 -0.2203777 0.24166149

conv1.bias f4 [16]
00000000: eeb4 1bb6 0c4c 2836 6b51 21b6 d37c 5b35
00000010: aff3 f736 f514 92b5 7d5e cd35 b25b 3535
00000020: 0fbb 0636 c34d 3a35 e03a 1935 0242 fab4
00000030: 286b b936 234e c734 4b91 82b6 9859 1335
-2.3202115e-06 2.5078216e-06 -2.403826e-06 8.17655e-07 7.389542e-06 -1.0883947e-06 1.530119e-06 6.756119e-07
2.0076438e-06 6.940356e-07 5.7082616e-07 -4.6614156e-07 5.5259043e-06 3.712349e-07 -3.8912162e-06 5.4892143e-07

conv2.weight f4 [32, 16, 3, 3]
00000000: 4132 6abd b8ad 933d 3abe eebc ea72 1f3d
00000010: fa4d b0bc a064 943c e391 b63d e2f1 583d
00000020: e8f5 b7bd 640e 5b3c 455f 803d 1731 0abd
00000030: bb37 ea3c 65a9 17be 5804 7d3c 771d e5bd
00000040: e0d6 373d ca18 c23d d700 883a 7153 f53c
00000050: 2ea8 86bb 3bdf 363c 609b a3bb f82d 753d
00000060: 4118 7d3d 707e edbc df7e c9bd 92b5 9dba
00000070: 6c61 9dbc ffe1 35bd 4954 56bd c2f3 a33c
00000080: c4a3 273c d119 d5bc 3988 b63d 7863 39bc
00000090: 3782 46bd b32c 1d3d 9f3d 443d 65c4 80bd
000000a0: 2a61 a23c d118 26bd 2138 353d 7494 b1bd
000000b0: eaab c93d 78bd bbbd 68c4 4f3d b8a8 f0bc
000000c0: 5f06 5f3d f4e2 8c3d b489 073d d884 0bbd
000000d0: 8e05 05bc 9f94 5f3c 8ef8 123d 0f03 8abd
000000e0: cd24 de39 3746 31bc 48e6 edba 1913 113c
000000f0: b632 0bbd 54a9 873d 3c65 9dbb 3845 273d
00000100: c30c 3dbd 933e c5bc 86c4 f33c 68e9 023d
00000110: 97ca a6bd c5ca 573d e125 e1bd fc1f b93d
00000120: b5ff 5c3c 4034 51bd 804e 7cbd ae8e 9e3d
00000130: a57d 9c3d 70cd 8c3d 10c5 f4bc b76d c3bc
00000140: 4da9 303d a617 79bc e50b f03a f947 c8bc
00000150: 2f8c 893c 28fb 063c 1c64 37bd 3580 bc3c
00000160: 110a c6bc df5d 9cbd 96c0 ad3c a694 663d
00000170: 39e1 cb3c 497d 8f3d a799 90bd 199b a2bb
00000180: 6225 573d 6363 56bd 651b bebc f3be c5bb
00000190: f544 0d3d be8a 323d c2c6 b63d 163f a0bd
000001a0: f2e4 8abd 3fbd 56bd cb55 c43c a80d 90bd
000001b0: 40f5 7ebc b623 ec3b 3a03 503d 4e15 ad3b
000001c0: f059 873d 84b3 67bc a30b 8a3d 59e7 2dbe
000001d0: a7e8 633d 003d b6b9 9816 c43c a106 76bc
000001e0: e8c1 1d3d 66ed 73bd eb35 a53d 19a1 d7bc
000001f0: 1b19 c0bc ec3b 61bd 7d33 e93c b1d9 a0bc
00000200: 0882 5e3c 9b7e 26bd d50b afbd cca8 4cbc
00000210: 655d 5c3d 5ff7 a3bd 168f bb3d c66d c8bc
00000220: eee7 263b 88a4 55bc bc0b 0f3d 927b 353d
00000230: 5a07 ed3b d7dc b6bc bb62 47ba 89d8 05bd
00000240: 1be3 923b bb56 69bc 988a 0d3c 1f6f 1c3d
00000250: 9fe9 8e3d be12 bb3d 730d a83d bcb6 433c
00000260: 2402 10bd d691 533d e0aa 8cbc edf9 08bd
00000270: 7a93 e63c c9f9 d7bb 75d6 bd3d 0e39 043d
00000280: 69c9 f5bb dc99 81bd fd25 c5bc 6a2f 0f3d
00000290: b911 4cbd 5f2e 15bd 748b 383c 41f9 0ebc
000002a0: 2154 c2bc 3095 98bd 6ac9 2ebc 11ea e9bd
000002b0: 6762 1e3d 66db 1abd b979 d73c 0418 183d
000002c0: 354d 1b3c 2eea fc3b a9af b6bd aeac c83b
000002d0: 21fe 8cbc 38f4 e33d 4bf7 80bb 2224 6abd
000002e0: 8de6 1f3d 7283 563d b777 933b adf9 ab3c
000002f0: a684 8dbd 873f 5abd 1d8a 6bbd 570d b1bd
00000300: 3e6a 8abd 0606 453d 7986 87bc 8793 fa3c
00000310: 8ce7 19bc 4dac 053c 5319 3a3d 374c 6ebd
00000320: 6447 45bb 7dff aabc 36c8 dbbc f99a 98bd
00000330: 27c9 8ebd 951b 69bc 071b 1fbd 1347 fdbc
00000340: 06b2 833d 2de2 30bd 7b56 273c b2d0 aabc
00000350: 7b0c 9fbc fd5a 56bc c8cb 83bd 2784 0a3d
00000360: 45db cabc cd6e 673c 9e97 6c3d f04f 8e3d
00000370: cde1 d43d 11ed a8bd 228e 7cbd 8cd6 cebc
00000380: efc4 1cbd 5b6c 0e3c 3d39 a7bc c673 1e3c
00000390: 233e 493d 4b0e a83d a796 c83c 8053 e0bb
000003a0: f1c1 443d f629 e1bc 6349 613b f9d6 bbbd
000003b0: 63eb 17bd 28fe 46bd b785 c4bc 0f0b 2f3d
000003c0: 4928 62bd ff29 edbb 5d6d 4d3b 2802 83bd
000003d0: 5090 0e3d 0cc9 fd3d 529a 00bc 9744 4cbb
000003e0: df7c 27bd 2eb8 5d3c 901e 0fbc 4763 aa3d
000003f0: c361 573c ad2d 213c 9eb4 f8ba eb2e a73d
-0.057176832 0.072108686 -0.029143441 0.03892795 -0.021521557 0.018114388 0.089145444 0.052965052
-0.0898245 0.01337013 0.06268171 -0.033738222 0.028591027 -0.14810713 0.01544293 -0.111872606
0.044882655 0.094773844 0.0010376227 0.029947015 -0.004109404 0.011161621 -0.0049928874 0.059858292
0.06179071 -0.028990954 -0.09838652 -0.0012032262 -0.019211493 -0.04440498 -0.052326474 0.020013694
0.010231916 -0.026013287 0.08912701 -0.011315219 -0.048464026 0.038372707 0.04791033 -0.06287459
0.019821722 -0.04055101 0.04424298 -0.08670893 0.09847243 -0.09166998 0.050724417 -0.029377326
0.054449435 0.068792254 0.03309031 -0.034062237 -0.008119 0.013646274 0.03588157 -0.06738865
0.00042370558 -0.010819963 -0.0018150294 0.008854651 -0.03398391 0.06624094 -0.004803328 0.040837497
-0.04615475 -0.02407769 0.029756796 0.031960875 -0.0814411 0.05268361 -0.10993553 0.09039304
0.0134887 -0.05107522 -0.0615983 0.07742058 0.07641152 0.068751216 -0.029879123 -0.023856027
0.043130208 -0.015203392 0.0018314092 -0.024448382 0.016790478 0.008238591 -0.044773206 0.023010353
-0.024174722 -0.07635092 0.021209996 0.056294106 0.024887668 0.07006318 -0.07060557 -0.0049623367
0.052525885 -0.052340876 -0.023206422 -0.006034726 0.03448959 0.043589346 0.08924629 -0.07824533
-0.06781949 -0.052426573 0.02396669 -0.07033855 -0.015561402 0.0072064055 0.050784327 0.0052820807
0.06608951 -0.014141921 0.06740501 -0.16982783 0.055641796 -0.00034759194 0.023936555 -0.015016229
0.038515 -0.059552573 0.08066925 -0.026321935 -0.023449471 -0.054988787 0.028466934 -0.019635053
0.013580807 -0.040648084 -0.08547179 -0.012491416 0.053800005 -0.08006167 0.09158151 -0.024466407
0.002546783 -0.013039716 0.0349233 0.0443073 0.0072335424 -0.022322102 -0.00076059595 -0.032677207
0.0044826395 -0.01424187 0.008639 0.03819191 0.069781534 0.09134434 0.0820569 0.011945423
-0.03515829 0.051652752 -0.017171323 -0.033441473 0.028146494 -0.006591056 0.0926942 0.032280974
-0.0075008166 -0.063281745 -0.024065966 0.034957327 -0.04982159 -0.036421176 0.011263717 -0.008726419
-0.023721756 -0.0745033 -0.010668138 -0.11421598 0.038668063 -0.03780689 0.02630316 0.037132278
0.009478857 0.007718346 -0.08920223 0.0061241006 -0.017211022 0.111305654 -0.0039357296 -0.057163365
0.03903823 0.05237145 0.004500355 0.020993078 -0.06910066 -0.05328324 -0.057504762 -0.086451225
-0.06758545 0.048101448 -0.016543614 0.030587925 -0.009393584 0.0081587555 0.045434307 -0.058178153
-0.0030102367 -0.02087378 -0.026828866 -0.07451434 -0.069719605 -0.0142277675 -0.038844135 -0.03091768
0.0643044 -0.043184448 0.01021349 -0.020851467 -0.01941513 -0.013083217 -0.064353526 0.033817437
-0.024762759 0.014125538 0.05776178 0.069488406 0.103946306 -0.08248342 -0.061658986 -0.025248788
-0.038273748 0.008692826 -0.020413036 0.009671157 0.049131524 0.08205851 0.0244859 -0.0068458915
0.04803652 -0.027485829 0.0034376017 -0.09171862 -0.037089717 -0.048582226 -0.023989541 0.042735156
-0.0552142 -0.0072376723 0.0031345703 -0.06396896 0.034805596 0.12391862 -0.007849293 -0.0031168812
-0.04089057 0.013532681 -0.008735314 0.08319717 0.013145867 0.00983755 -0.0018974727 0.08163246

conv2.bias f4 [32]
00000000: 8aac a6b6 e6a6 4836 1ed8 d5b6 4819 7cb6
00000010: 5b3e 14b3 acc5 b8b6 3664 7f35 bbd2 6bb6
00000020: 42c3 8936 cf73 19b6 ffc9 de35 692b e8b5
00000030: 5d12 6436 86d4 3ab5 e7cf ec36 15ac 8434
00000040: a172 c7b4 32c8 fc34 bc14 02b4 9d22 8b35
00000050: 7ff3 e1b3 05e6 b5b5 280b ff35 a75e e035
00000060: 86a3 7736 d1de eab5 12ee e435 4a4e a7b5
00000070: 53e3 13b6 001e cf36 bd6f 0837 2124 6b35
-4.9672717e-06 2.989947e-06 -6.373054e-06 -3.7565642e-06 -3.4515647e-08 -5.5066394e-06 9.514073e-07 -3.514039e-06
4.105649e-06 -2.2866186e-06 1.6599078e-06 -1.7297981e-06 3.3985336e-06 -6.959966e-07 7.057551e-06 2.4712122e-07
-3.7150042e-07 4.708432e-07 -1.2114737e-07 1.0366381e-06 -1.0521671e-07 -1.3552495e-06 1.9002227e-06 1.6716848e-06
3.6901051e-06 -1.7499207e-06 1.7056611e-06 -1.2465255e-06 -2.2037027e-06 6.172573e-06 8.132248e-06 8.7596896e-07

conv3.weight f4 [16, 32, 3, 3]
00000000: a0d7 273b 135b abbd c4a8 2ebc 6914 153d
00000010: 8b6c 1abd c56a f7bb 59d0 2e3d 46a3 473d
00000020: 4534 483d 3d33 87bd eec4 783b a4b0 91bb
00000030: be19 233c fb29 d6ba 4526 063d 174e 1c3d
00000040: 7999 443d 2ecb 2a3d 6795 153d 97a0 b63c
00000050: 88b4 4a3c 4dd0 833b 5d88 12be 83c9 a13c
00000060: bd73 863c ceef 033d 0c09 2a3d d58c 303c
00000070: 9c97 4ebc 77b0 413d fd62 443d d69b 86bd
00000080: 2dcf eebd 1751 893b f980 a33c 8108 443d
00000090: 1d4a e73c fb88 54bc ab2a c4bc c98d 343d
000000a0: d751 abbc f28c 1ebd 5d2c 853c d1fb 82bc
000000b0: 1005 1dbd a8bc e0bb 3890 2abc 3d29 f1bb
000000c0: ab6b f03c 80de 913d 8b4a 32bc e083 8dbb
000000d0: bb62 4cbc daec 8a3c 0379 45bd d0fc 75bc
000000e0: 1cb0 b6bc ec74 813c df8e 21bc 40b9 84bc
000000f0: 98e1 e93c 09d9 233d 0412 653c c692 2bbc
00000100: 5049 db3c 73ed 9dbb 8cd8 a23a df2b cabc
00000110: ab3e 233d c696 8abc 584d c73b aabb 39bd
00000120: 9ff6 febc 7f69 f4bb cac4 273d e728 303d
00000130: b969 653d 6a99 a9bb 2a3b 2ebd c19d 4cba
00000140: 76fb b7bc 0f6c 17bc a574 23bd 07da 2d3a
00000150: 7225 c13c 6519 243d 1d93 2cbd 96ee 193d
00000160: 9a64 a0bc 0f26 2538 30b9 1cbc fe70 48bc
00000170: 8f4e 6b3a 2d89 873d 12fe e2bd b85a 7abd
00000180: e4d0 4f3d a5a1 a9bb 2a82 a5bd 0023 6fbd
00000190: 6312 e93c ae86 833c bfb7 523c fbff 023d
000001a0: 52b1 a23c a823 3dbd 7ce1 7c3c 1149 043c
000001b0: e78f b73c 52da 9d3c bdb3 a43c 7db0 723d
000001c0: d35a 863d 153a 5ebd 1f04 25bd e196 8cbc
000001d0: ddf6 5bbd c300 a3bc 5096 64bd 7839 8b3c
000001e0: 2ba6 c63c d193 9b3d 9e75 aa39 a0aa 13bc
000001f0: 60f9 713c 39e8 bc3c 9add f4ba ac26 fcbb
00000200: be10 103d c2a5 8c3c 73bc fdbd bf55 603c
00000210: 7a33 183d 4186 1dbc 7f20 6939 9da6 563d
00000220: cbc5 acbd cf5f 303d cd3d 0a3d 49ed 423d
00000230: 8684 243d 6654 55bd 8dfc 073d ef59 b5bc
00000240: 227b 083d 278d 1dbd b645 413a 3196 87bd
00000250: 081a 803c 2115 093c d54f dd3c 64f3 58bd
00000260: 0b62 de3c b62f 63bd 7111 d4bc 4f81 773c
00000270: 8518 1b3c c358 e73c 922f 713d 5d45 263c
00000280: 8214 583c da35 97bd 2261 a83d a5a4 a4bc
00000290: dfd1 43bd 682e 23bd 3417 92bd 24b9 943c
000002a0: 0ea8 fe3c 8536 4c3d d55d f83c 1995 7abd
000002b0: 35d8 273c 2a76 753c 2995 93bd a556 94bb
000002c0: 283b 68bc c7bb 923b edd8 c7bc 7454 12bd
000002d0: 9cf2 16bc d9cf 803d cbb9 9c3c 40d6 18bd
000002e0: 7d42 9f3d 6157 54bd eb1b fd3c 8dd9 583d
000002f0: 66ab 7c3c a9c6 04bc eafb 153d 0437 85bd
00000300: 6304 f83b 5e11 ae3d 8392 44bc 212d e13c
00000310: 7c3c 89bc 86cc e1bc 7bfb dabb 231d 56bc
00000320: 384b 1e3d a1e0 f63c 85af 26bd dfa8 9dbc
00000330: 2f2e 10bd aa2b 95ba 36a9 e33a 778a 203c
00000340: 7080 3dbc 62cf 143c 718f 043b 8753 413d
00000350: 7861 16bd f248 9a3c c35d 11bc 00dd 323d
00000360: 928d 313c c34d 95bc 4514 a1bc c06a 5ebd
00000370: 3fb5 25bd 9368 edbc 177a 203d dd63 71bc
00000380: 6834 acbb 13e0 3f3d 2635 93bd f106 533d
00000390: a73d 1cbd 675c 323c 4efd 16bd 7a4a 863b
000003a0: 9611 da3c 1535 2cbc 566b 4ebd da0b ff3a
000003b0: fa2e f5bb 31d0 1cbd f795 e73c 48ef b63b
000003c0: b6b4 b03b a7c9 3c3c 81ab fd3c a29e e2bb
000003d0: ad60 e3bc 8e2a f9b9 2e16 88bb 05af e0bd
000003e0: 69d6 7e3c 2b9f 673c 57fe 05bd 3744 733d
000003f0: 5dde 68bc 0851 4c3d ac84 de3b 7b18 d13c
0.00256107 -0.083669804 -0.010660354 0.036396418 -0.03770117 -0.0075505697 0.042679165 0.048739694
0.048877973 -0.0660157 0.0037959176 -0.004446106 0.009954868 -0.0016339415 0.03275134 0.03816041
0.047997925 0.041697673 0.036519434 0.022293372 0.012372144 0.004022634 -0.14309831 0.019749409
0.01641261 0.032211117 0.041512534 0.0107757645 -0.012609389 0.04728743 0.047945965 -0.06572692
-0.116606094 0.004190575 0.01995896 0.047859672 0.028233582 -0.012972112 -0.023946127 0.04408053
-0.020913048 -0.038708635 0.016256506 -0.015989216 -0.038334906 -0.006858427 -0.010410361 -0.0073596523
0.029348215 0.07122517 -0.01088203 -0.0043186992 -0.012474711 0.016958643 -0.04821111 -0.0150138885
-0.022300772 0.015802823 -0.009860723 -0.016201615 0.028549954 0.040001903 0.013981346 -0.010472005
0.026768357 -0.004819566 0.0012424155 -0.024679122 0.039854687 -0.016917598 0.006082218 -0.045344986
-0.031123457 -0.007458865 0.040959157 0.043007758 0.056009028 -0.005175759 -0.042536892 -0.00078054896
-0.022458773 -0.009242072 -0.039906163 0.0006631915 0.023577426 0.04006328 -0.042132486 0.03758105
-0.01957922 3.937451e-05 -0.0095656365 -0.012233971 0.0008976245 0.06617961 -0.11083616 -0.061121672
0.050736323 -0.0051767402 -0.080814674 -0.058382988 0.02845115 0.016055431 0.012861191 0.031982403
0.019859944 -0.046176583 0.015434619 0.008074061 0.022407485 0.019269142 0.020105237 0.059250344
0.06560292 -0.05425461 -0.040287133 -0.017161788 -0.053702224 -0.019897824 -0.05580741 0.016995177
0.024249157 0.07596553 0.00032512558 -0.009012848 0.014768928 0.023059951 -0.0018681765 -0.0076950397
0.035172217 0.017168883 -0.123894595 0.013692318 0.037158467 -0.009614528 0.00022232717 0.05240499
-0.084361635 0.04306012 0.033750344 0.047589574 0.040165447 -0.05208244 0.033199836 -0.02213761
0.033320554 -0.03846469 0.00073727535 -0.066204436 0.015637413 0.008366854 0.027015606 -0.05296649
0.02714636 -0.055465423 -0.025887223 0.015106513 0.009466295 0.028240567 0.058883257 0.010148373
0.013188483 -0.07383318 0.082216516 -0.02009804 -0.04780757 -0.03983918 -0.07133332 0.018154688
0.031085994 0.04985668 0.03031818 -0.061177347 0.010244419 0.014981786 -0.072061844 -0.0045269304
-0.01417426 0.004477951 -0.02439543 -0.035725072 -0.009213116 0.06289644 0.019131562 -0.0373137
0.077763535 -0.051841144 0.030897101 0.052941848 0.015421724 -0.008104005 0.036617197 -0.06504634
0.0075688823 0.08499406 -0.011997822 0.02748734 -0.016752474 -0.027563345 -0.006682811 -0.01306847
0.038645953 0.030136408 -0.040694732 -0.019245563 -0.035200294 -0.0011380811 0.0017369154 0.009798638
-0.011566266 0.009082647 0.00202271 0.0471988 -0.036714047 0.018833611 -0.008872452 0.043667793
0.010836976 -0.018225556 -0.019662986 -0.054301023 -0.040456053 -0.028980529 0.039178934 -0.014733282
-0.0052552707 0.046844553 -0.07187872 0.05152029 -0.038144734 0.010886288 -0.036862664 0.0040982338
0.026619714 -0.010510703 -0.050395332 0.0019458488 -0.0074824067 -0.038284484 0.028269751 0.0055827238
0.005392636 0.011522687 0.030965568 -0.006915883 -0.02775606 -0.00047524687 -0.0041530346 -0.10970882
0.015554049 0.01413707 -0.03271326 0.059391227 -0.014213172 0.049881965 0.006790718 0.025524369

conv3.bias f4 [16]
00000000: 1bee 9bb6 02a6 bbb6 6703 9536 2a47 3c36
00000010: dbac 9134 edb0 45b6 5979 bfb5 9015 a535
00000020: 5498 5336 f7ae 4db4 a5ce 9a36 88d1 cb34
00000030: 97b8 4236 8c1d d333 9108 fb34 1301 2235
-4.647079e-06 -5.59236e-06 4.440942e-06 2.8055606e-06 2.7134124e-07 -2.9458272e-06 -1.4265926e-06 1.2299733e-06
3.1530117e-06 -1.9155765e-07 4.6136142e-06 3.796415e-07 2.9015698e-06 9.830828e-08 4.6758626e-07 6.0351266e-07

final_conv.weight f4 [1, 16, 1, 1]
00000000: a908 d6be 324b af3e 30f5 9d3e 7a5d f1be
00000010: 9c17 a6be 161e b9be aabb e2be f427 dabe
00000020: 2625 a5be 61f6 96be f98e fd3e 5879 a63e
00000030: 5ce8 f33e 58a7 99be 4664 c4be 1740 f63e
-0.41803482 0.34237057 0.30851126 -0.4714163 -0.32439888 -0.36155766 -0.442838 -0.42608607
-0.32254905 -0.29484847 0.49523142 0.32514453 0.47638214 -0.30010486 -0.38357753 0.48095772

bn1.weight f4 [16]
00000000: fe3c 693f 31f3 783f 6f29 783f 7dab 673f
00000010: c53d 833f 35f2 863f 0e95 823f 9e7b 873f
00000020: d63b 713f 054b 623f 3d98 663f acfe 733f
00000030: 74b6 853f ce7d 6a3f fbf3 7a3f 7ed7 643f
0.9110869 0.9724608 0.9693822 0.90496045 1.0253226 1.0542666 1.0201738 1.05846
0.9423193 0.8839572 0.9007605 0.95310473 1.0446305 0.9159821 0.98028535 0.89391315

bn1.bias f4 [16]
00000000: 07e3 21be 9ad5 8fbd 0960 3cbe cf3d 7abe
00000010: 2b76 77be 0f01 c5bc 00c7 ffbc 0ef0 4abe
00000020: 8bd4 a2be f4b2 c3bd 4396 0abe 43f3 8abe
00000030: 0d81 b2be 49ba 0ebe a2f8 5dbd b1b0 f8bd
-0.1580926 -0.07023163 -0.1839601 -0.2443764 -0.24166171 -0.024048356 -0.03122282 -0.19818136
-0.31802782 -0.09555617 -0.13533883 -0.2713872 -0.34864083 -0.1393825 -0.054192193 -0.12143076

bn1.running_mean f4 [16]
00000000: 8629 343c 45a6 863c cbdb 643c cd11 93bc
00000010: a7ee 283c 8be5 dfbc c3df cbbc e632 0d3c
00000020: 0b54 10bc bc46 beba 003c d1bc cdb7 1fbc
00000030: da1e 023c 16aa 723b 9c48 1bbb fd7b 5cba
0.010996228 0.016436705 0.013968418 -0.017952824 0.010310805 -0.027331134 -0.024886971 0.008618092
-0.0088091 -0.001451693 -0.025541306 -0.009748411 0.007941926 0.0037027649 -0.0023694402 -0.00084108097

bn1.running_var f4 [16]
00000000: 7101 5f3e e98b d43e 5184 ad3e b354 f03e
00000010: b7b6 783e f6fb 613f e99b 493f 4f2f 2e3e
00000020: f511 3d3e a3bf 233e 37df 463f d09a a63e
00000030: d134 1a3e 8f14 6e3e 9ec8 803d b713 1b3e
0.21777894 0.41512993 0.33890012 0.4693962 0.2428845 0.88275087 0.78753525 0.17010234
0.18463881 0.15991072 0.7768435 0.32539988 0.1505921 0.2325003 0.06288265 0.1514424

bn2.weight f4 [32]
00000000: 3203 833f 22be 713f 8a85 8c3f 4d08 873f
00000010: e413 723f ea04 7a3f 6e0c 723f a802 783f
00000020: b93d 7f3f 01f6 823f 0310 8a3f b889 723f
00000030: 26dd 783f 1288 813f 2363 8d3f 9d85 7b3f
00000040: 36a9 7e3f e4f7 7a3f 7055 703f ded1 7a3f
00000050: e3ab 743f 56a3 793f 5f4e 773f b4d0 743f
00000060: 0cde 823f 2ba8 7c3f 9b6b 7a3f f88f 773f
00000070: cfbc 7b3f 76c0 7a3f d2e6 753f 7f54 783f
1.023535 0.94430745 1.0978253 1.0549408 0.945616 0.9766375 0.94550216 0.96879053
0.99703556 1.0231324 1.0786136 0.9474139 0.97212446 1.011965 1.1045879 0.9825075
0.99476945 0.980345 0.9388037 0.9797648 0.9557478 0.97514856 0.9660396 0.95630956
1.0224013 0.98694104 0.9782044 0.96704054 0.98334974 0.9794992 0.9605533 0.9700393

bn2.bias f4 [32]
00000000: aab5 5bbd 89b6 38bd 27aa 00be 0e91 0abe
00000010: 9138 1cbd 9495 47be 740b 91bd 541a 14bd
00000020: aec9 bfbd aaa2 0dbd df6e b3bd 251d 7cbd
00000030: 2e4f 0cbe a91f 67bd 189f 1e3d 5d52 92bd
00000040: 3f1b 41bd 8072 6ebd 14f4 91bd 8cdd 2ebd
00000050: 1599 bcbd 6edc 22bd 342d 9bbd c4a0 52be
00000060: 5d1b 03bd df43 91bd 7c4a 6fbd b032 cbbc
00000070: 5ccb b5bd e63c 0abe 4626 42be b804 50bd
-0.053640045 -0.045095954 -0.12564908 -0.13531896 -0.038139883 -0.19490653 -0.07082263 -0.03615792
-0.09364639 -0.034578957 -0.08761381 -0.061551232 -0.1370208 -0.056426678 0.038725942 -0.07144616
-0.047145125 -0.058214664 -0.07126632 -0.042691752 -0.092088856 -0.039761 -0.07576981 -0.2056914
-0.032008518 -0.070930235 -0.058420643 -0.024804443 -0.08876678 -0.13499793 -0.18959913 -0.05078575

bn2.running_mean f4 [32]
00000000: 8402 343c 1f7b a6bd 2e30 12be f607 3a3e
00000010: b4c8 7f3d 0823 3f3d 545d aebe 12f7 f23c
00000020: 5a32 113f de66 a43a f508 19be 6b1c cabe
00000030: 96dc 80be 173a 0dbe 9443 61be ec73 2b3e
00000040: 8c9c ec3d f321 dabd b30a 383f 3371 dbbe
00000050: e117 ddbe 20b5 8fbd 39b5 f13e c724 923e
00000060: cc35 debd d210 fdbd 6347 bebe 1227 d93e
00000070: f3a6 8dbd 0562 b83e 5b35 673f 4ce5 a13e
0.010986928 -0.08128952 -0.14276192 0.181671 0.062447265 0.046664268 -0.3405558 0.029658828
0.56717455 0.0012542864 -0.14944823 -0.39474806 -0.25168294 -0.13791691 -0.21998435 0.1674344
0.115532964 -0.106510065 0.71891326 -0.42859802 -0.4318228 -0.07016969 0.47208574 0.28543684
-0.10850105 -0.12356724 -0.3716384 0.4241262 -0.06916609 0.36012283 0.9031579 0.31620252

bn2.running_var f4 [32]
00000000: 30db 6d3d 5817 a93e 9879 263e 7163 ce3d
00000010: e0fc ca3e d2e6 d33d cb30 ac3d 89d0 963e
00000020: 1958 453e d448 553e 8ab7 8a3e 1a12 003f
00000030: f8ba 5d3e 5229 063e 4ea5 0f3e e409 3b3e
00000040: d68c 843e 51a2 6d3e 5528 323e 4552 e03e
00000050: eb8c 223f 67be 4e3e 7b47 953e addd 503e
00000060: d09b 8a3e af1c a33d 5e72 123f e11a da3e
00000070: 981a 583e acd2 ba3d 3949 fd3d 1641 833e
0.05807036 0.33025622 0.16257322 0.10077561 0.39646053 0.1034676 0.08407744 0.29455975
0.19271888 0.20828563 0.27093154 0.5002762 0.21653354 0.131017 0.14027902 0.18265492
0.258887 0.2320645 0.17398198 0.43812767 0.63496274 0.2018982 0.29156098 0.20397063
0.27072 0.07964455 0.5720576 0.42598632 0.21103895 0.09122214 0.12367482 0.25635594

bn3.weight f4 [16]
00000000: 816a a23f ed04 b33f 120e af3f 33ad a33f
00000010: 7023 9d3f cff0 a73f 126f a53f eb99 a73f
00000020: 2b8e a73f db94 a73f b314 a23f 6b94 b63f
00000030: 497c a43f fa6c a63f 66b9 a23f 3ed5 a33f
1.2688752 1.3985878 1.3676169 1.2787231 1.227644 1.3120364 1.2924521 1.3093847
1.3090261 1.3092302 1.2662567 1.4264044 1.2850429 1.3002007 1.2712829 1.2799451

bn3.bias f4 [16]
00000000: 9902 7e3e 965a 9e3e 8b9d ab3e a7a7 813e
00000010: ba62 703e 9d56 8f3e b31f 823e e16c 863e
00000020: a120 8c3e 2b21 903e d30b 7c3e 6ea0 be3e
00000030: 1e3f 853e b65a 913e d794 823e ed8a 7a3e
0.24805678 0.30928487 0.33518633 0.2532322 0.23475161 0.27995768 0.2541481 0.26254943
0.27368644 0.28150305 0.24613886 0.37231773 0.26024717 0.2838952 0.2550418 0.24467058

bn3.running_mean f4 [16]
00000000: 7809 dfbc 5c10 86be da5a 86be 40c6 84bd
00000010: ef81 9bbd 1df8 9bbd 7bfe d0bc bb54 69bd
00000020: 371c 1dbd 3a57 48bd cacf 8fbe bae5 86be
00000030: 375c 1cbe a8af 5dbd c530 32bd 1da4 84be
-0.027226195 -0.26184356 -0.2624119 -0.06483126 -0.07593142 -0.07615683 -0.02551197 -0.05696557
-0.038356986 -0.04891131 -0.28088218 -0.26347142 -0.15269552 -0.054122597 -0.04350354 -0.25906458

bn3.running_var f4 [16]
00000000: 2f54 013f 0952 e73e 70e0 423f 3bdb 0c3f
00000010: 8f28 e83e 724e f93e f4ab 133f 3310 1f3f
00000020: 139d ed3e 6225 193f a9dc 163f ed3c 4a3f
00000030: e1d2 1b3f 7857 193f 87c7 083f 98ab ff3e
0.5051908 0.45179775 0.76123714 0.5502202 0.45343444 0.48692662 0.57684255 0.62134093
0.464089 0.59822667 0.5893045 0.78999215 0.6086865 0.5989909 0.53429455 0.49935603
